2023-03-14 08:40:40,442 Namespace(batch_size=16, class_weights=1, dataDir='data/Mango', epochs=200, logDir='logs_temp', max_lr=3e-05, modelDir='weights_temp', model_type='mobilenet', n_class=28, split_ratio=0.9, weight_decay=0.0001)
2023-03-14 08:40:40,481 BaseFeatureExtractor(
  (backbone): MobileNetV2(
    (features): Sequential(
      (0): Conv2dNormActivation(
        (0): Conv2d(3, 32, kernel_size=(3, 3), stride=(2, 2), padding=(1, 1), bias=False)
        (1): BatchNorm2d(32, eps=1e-05, momentum=0.1, affine=True, track_running_stats=True)
        (2): ReLU6(inplace=True)
      )
      (1): InvertedResidual(
        (conv): Sequential(
          (0): Conv2dNormActivation(
            (0): Conv2d(32, 32, kernel_size=(3, 3), stride=(1, 1), padding=(1, 1), groups=32, bias=False)
            (1): BatchNorm2d(32, eps=1e-05, momentum=0.1, affine=True, track_running_stats=True)
            (2): ReLU6(inplace=True)
          )
          (1): Conv2d(32, 16, kernel_size=(1, 1), stride=(1, 1), bias=False)
          (2): BatchNorm2d(16, eps=1e-05, momentum=0.1, affine=True, track_running_stats=True)
        )
      )
      (2): InvertedResidual(
        (conv): Sequential(
          (0): Conv2dNormActivation(
            (0): Conv2d(16, 96, kernel_size=(1, 1), stride=(1, 1), bias=False)
            (1): BatchNorm2d(96, eps=1e-05, momentum=0.1, affine=True, track_running_stats=True)
            (2): ReLU6(inplace=True)
          )
          (1): Conv2dNormActivation(
            (0): Conv2d(96, 96, kernel_size=(3, 3), stride=(2, 2), padding=(1, 1), groups=96, bias=False)
            (1): BatchNorm2d(96, eps=1e-05, momentum=0.1, affine=True, track_running_stats=True)
            (2): ReLU6(inplace=True)
          )
          (2): Conv2d(96, 24, kernel_size=(1, 1), stride=(1, 1), bias=False)
          (3): BatchNorm2d(24, eps=1e-05, momentum=0.1, affine=True, track_running_stats=True)
        )
      )
      (3): InvertedResidual(
        (conv): Sequential(
          (0): Conv2dNormActivation(
            (0): Conv2d(24, 144, kernel_size=(1, 1), stride=(1, 1), bias=False)
            (1): BatchNorm2d(144, eps=1e-05, momentum=0.1, affine=True, track_running_stats=True)
            (2): ReLU6(inplace=True)
          )
          (1): Conv2dNormActivation(
            (0): Conv2d(144, 144, kernel_size=(3, 3), stride=(1, 1), padding=(1, 1), groups=144, bias=False)
            (1): BatchNorm2d(144, eps=1e-05, momentum=0.1, affine=True, track_running_stats=True)
            (2): ReLU6(inplace=True)
          )
          (2): Conv2d(144, 24, kernel_size=(1, 1), stride=(1, 1), bias=False)
          (3): BatchNorm2d(24, eps=1e-05, momentum=0.1, affine=True, track_running_stats=True)
        )
      )
      (4): InvertedResidual(
        (conv): Sequential(
          (0): Conv2dNormActivation(
            (0): Conv2d(24, 144, kernel_size=(1, 1), stride=(1, 1), bias=False)
            (1): BatchNorm2d(144, eps=1e-05, momentum=0.1, affine=True, track_running_stats=True)
            (2): ReLU6(inplace=True)
          )
          (1): Conv2dNormActivation(
            (0): Conv2d(144, 144, kernel_size=(3, 3), stride=(2, 2), padding=(1, 1), groups=144, bias=False)
            (1): BatchNorm2d(144, eps=1e-05, momentum=0.1, affine=True, track_running_stats=True)
            (2): ReLU6(inplace=True)
          )
          (2): Conv2d(144, 32, kernel_size=(1, 1), stride=(1, 1), bias=False)
          (3): BatchNorm2d(32, eps=1e-05, momentum=0.1, affine=True, track_running_stats=True)
        )
      )
      (5): InvertedResidual(
        (conv): Sequential(
          (0): Conv2dNormActivation(
            (0): Conv2d(32, 192, kernel_size=(1, 1), stride=(1, 1), bias=False)
            (1): BatchNorm2d(192, eps=1e-05, momentum=0.1, affine=True, track_running_stats=True)
            (2): ReLU6(inplace=True)
          )
          (1): Conv2dNormActivation(
            (0): Conv2d(192, 192, kernel_size=(3, 3), stride=(1, 1), padding=(1, 1), groups=192, bias=False)
            (1): BatchNorm2d(192, eps=1e-05, momentum=0.1, affine=True, track_running_stats=True)
            (2): ReLU6(inplace=True)
          )
          (2): Conv2d(192, 32, kernel_size=(1, 1), stride=(1, 1), bias=False)
          (3): BatchNorm2d(32, eps=1e-05, momentum=0.1, affine=True, track_running_stats=True)
        )
      )
      (6): InvertedResidual(
        (conv): Sequential(
          (0): Conv2dNormActivation(
            (0): Conv2d(32, 192, kernel_size=(1, 1), stride=(1, 1), bias=False)
            (1): BatchNorm2d(192, eps=1e-05, momentum=0.1, affine=True, track_running_stats=True)
            (2): ReLU6(inplace=True)
          )
          (1): Conv2dNormActivation(
            (0): Conv2d(192, 192, kernel_size=(3, 3), stride=(1, 1), padding=(1, 1), groups=192, bias=False)
            (1): BatchNorm2d(192, eps=1e-05, momentum=0.1, affine=True, track_running_stats=True)
            (2): ReLU6(inplace=True)
          )
          (2): Conv2d(192, 32, kernel_size=(1, 1), stride=(1, 1), bias=False)
          (3): BatchNorm2d(32, eps=1e-05, momentum=0.1, affine=True, track_running_stats=True)
        )
      )
      (7): InvertedResidual(
        (conv): Sequential(
          (0): Conv2dNormActivation(
            (0): Conv2d(32, 192, kernel_size=(1, 1), stride=(1, 1), bias=False)
            (1): BatchNorm2d(192, eps=1e-05, momentum=0.1, affine=True, track_running_stats=True)
            (2): ReLU6(inplace=True)
          )
          (1): Conv2dNormActivation(
            (0): Conv2d(192, 192, kernel_size=(3, 3), stride=(2, 2), padding=(1, 1), groups=192, bias=False)
            (1): BatchNorm2d(192, eps=1e-05, momentum=0.1, affine=True, track_running_stats=True)
            (2): ReLU6(inplace=True)
          )
          (2): Conv2d(192, 64, kernel_size=(1, 1), stride=(1, 1), bias=False)
          (3): BatchNorm2d(64, eps=1e-05, momentum=0.1, affine=True, track_running_stats=True)
        )
      )
      (8): InvertedResidual(
        (conv): Sequential(
          (0): Conv2dNormActivation(
            (0): Conv2d(64, 384, kernel_size=(1, 1), stride=(1, 1), bias=False)
            (1): BatchNorm2d(384, eps=1e-05, momentum=0.1, affine=True, track_running_stats=True)
            (2): ReLU6(inplace=True)
          )
          (1): Conv2dNormActivation(
            (0): Conv2d(384, 384, kernel_size=(3, 3), stride=(1, 1), padding=(1, 1), groups=384, bias=False)
            (1): BatchNorm2d(384, eps=1e-05, momentum=0.1, affine=True, track_running_stats=True)
            (2): ReLU6(inplace=True)
          )
          (2): Conv2d(384, 64, kernel_size=(1, 1), stride=(1, 1), bias=False)
          (3): BatchNorm2d(64, eps=1e-05, momentum=0.1, affine=True, track_running_stats=True)
        )
      )
      (9): InvertedResidual(
        (conv): Sequential(
          (0): Conv2dNormActivation(
            (0): Conv2d(64, 384, kernel_size=(1, 1), stride=(1, 1), bias=False)
            (1): BatchNorm2d(384, eps=1e-05, momentum=0.1, affine=True, track_running_stats=True)
            (2): ReLU6(inplace=True)
          )
          (1): Conv2dNormActivation(
            (0): Conv2d(384, 384, kernel_size=(3, 3), stride=(1, 1), padding=(1, 1), groups=384, bias=False)
            (1): BatchNorm2d(384, eps=1e-05, momentum=0.1, affine=True, track_running_stats=True)
            (2): ReLU6(inplace=True)
          )
          (2): Conv2d(384, 64, kernel_size=(1, 1), stride=(1, 1), bias=False)
          (3): BatchNorm2d(64, eps=1e-05, momentum=0.1, affine=True, track_running_stats=True)
        )
      )
      (10): InvertedResidual(
        (conv): Sequential(
          (0): Conv2dNormActivation(
            (0): Conv2d(64, 384, kernel_size=(1, 1), stride=(1, 1), bias=False)
            (1): BatchNorm2d(384, eps=1e-05, momentum=0.1, affine=True, track_running_stats=True)
            (2): ReLU6(inplace=True)
          )
          (1): Conv2dNormActivation(
            (0): Conv2d(384, 384, kernel_size=(3, 3), stride=(1, 1), padding=(1, 1), groups=384, bias=False)
            (1): BatchNorm2d(384, eps=1e-05, momentum=0.1, affine=True, track_running_stats=True)
            (2): ReLU6(inplace=True)
          )
          (2): Conv2d(384, 64, kernel_size=(1, 1), stride=(1, 1), bias=False)
          (3): BatchNorm2d(64, eps=1e-05, momentum=0.1, affine=True, track_running_stats=True)
        )
      )
      (11): InvertedResidual(
        (conv): Sequential(
          (0): Conv2dNormActivation(
            (0): Conv2d(64, 384, kernel_size=(1, 1), stride=(1, 1), bias=False)
            (1): BatchNorm2d(384, eps=1e-05, momentum=0.1, affine=True, track_running_stats=True)
            (2): ReLU6(inplace=True)
          )
          (1): Conv2dNormActivation(
            (0): Conv2d(384, 384, kernel_size=(3, 3), stride=(1, 1), padding=(1, 1), groups=384, bias=False)
            (1): BatchNorm2d(384, eps=1e-05, momentum=0.1, affine=True, track_running_stats=True)
            (2): ReLU6(inplace=True)
          )
          (2): Conv2d(384, 96, kernel_size=(1, 1), stride=(1, 1), bias=False)
          (3): BatchNorm2d(96, eps=1e-05, momentum=0.1, affine=True, track_running_stats=True)
        )
      )
      (12): InvertedResidual(
        (conv): Sequential(
          (0): Conv2dNormActivation(
            (0): Conv2d(96, 576, kernel_size=(1, 1), stride=(1, 1), bias=False)
            (1): BatchNorm2d(576, eps=1e-05, momentum=0.1, affine=True, track_running_stats=True)
            (2): ReLU6(inplace=True)
          )
          (1): Conv2dNormActivation(
            (0): Conv2d(576, 576, kernel_size=(3, 3), stride=(1, 1), padding=(1, 1), groups=576, bias=False)
            (1): BatchNorm2d(576, eps=1e-05, momentum=0.1, affine=True, track_running_stats=True)
            (2): ReLU6(inplace=True)
          )
          (2): Conv2d(576, 96, kernel_size=(1, 1), stride=(1, 1), bias=False)
          (3): BatchNorm2d(96, eps=1e-05, momentum=0.1, affine=True, track_running_stats=True)
        )
      )
      (13): InvertedResidual(
        (conv): Sequential(
          (0): Conv2dNormActivation(
            (0): Conv2d(96, 576, kernel_size=(1, 1), stride=(1, 1), bias=False)
            (1): BatchNorm2d(576, eps=1e-05, momentum=0.1, affine=True, track_running_stats=True)
            (2): ReLU6(inplace=True)
          )
          (1): Conv2dNormActivation(
            (0): Conv2d(576, 576, kernel_size=(3, 3), stride=(1, 1), padding=(1, 1), groups=576, bias=False)
            (1): BatchNorm2d(576, eps=1e-05, momentum=0.1, affine=True, track_running_stats=True)
            (2): ReLU6(inplace=True)
          )
          (2): Conv2d(576, 96, kernel_size=(1, 1), stride=(1, 1), bias=False)
          (3): BatchNorm2d(96, eps=1e-05, momentum=0.1, affine=True, track_running_stats=True)
        )
      )
      (14): InvertedResidual(
        (conv): Sequential(
          (0): Conv2dNormActivation(
            (0): Conv2d(96, 576, kernel_size=(1, 1), stride=(1, 1), bias=False)
            (1): BatchNorm2d(576, eps=1e-05, momentum=0.1, affine=True, track_running_stats=True)
            (2): ReLU6(inplace=True)
          )
          (1): Conv2dNormActivation(
            (0): Conv2d(576, 576, kernel_size=(3, 3), stride=(2, 2), padding=(1, 1), groups=576, bias=False)
            (1): BatchNorm2d(576, eps=1e-05, momentum=0.1, affine=True, track_running_stats=True)
            (2): ReLU6(inplace=True)
          )
          (2): Conv2d(576, 160, kernel_size=(1, 1), stride=(1, 1), bias=False)
          (3): BatchNorm2d(160, eps=1e-05, momentum=0.1, affine=True, track_running_stats=True)
        )
      )
      (15): InvertedResidual(
        (conv): Sequential(
          (0): Conv2dNormActivation(
            (0): Conv2d(160, 960, kernel_size=(1, 1), stride=(1, 1), bias=False)
            (1): BatchNorm2d(960, eps=1e-05, momentum=0.1, affine=True, track_running_stats=True)
            (2): ReLU6(inplace=True)
          )
          (1): Conv2dNormActivation(
            (0): Conv2d(960, 960, kernel_size=(3, 3), stride=(1, 1), padding=(1, 1), groups=960, bias=False)
            (1): BatchNorm2d(960, eps=1e-05, momentum=0.1, affine=True, track_running_stats=True)
            (2): ReLU6(inplace=True)
          )
          (2): Conv2d(960, 160, kernel_size=(1, 1), stride=(1, 1), bias=False)
          (3): BatchNorm2d(160, eps=1e-05, momentum=0.1, affine=True, track_running_stats=True)
        )
      )
      (16): InvertedResidual(
        (conv): Sequential(
          (0): Conv2dNormActivation(
            (0): Conv2d(160, 960, kernel_size=(1, 1), stride=(1, 1), bias=False)
            (1): BatchNorm2d(960, eps=1e-05, momentum=0.1, affine=True, track_running_stats=True)
            (2): ReLU6(inplace=True)
          )
          (1): Conv2dNormActivation(
            (0): Conv2d(960, 960, kernel_size=(3, 3), stride=(1, 1), padding=(1, 1), groups=960, bias=False)
            (1): BatchNorm2d(960, eps=1e-05, momentum=0.1, affine=True, track_running_stats=True)
            (2): ReLU6(inplace=True)
          )
          (2): Conv2d(960, 160, kernel_size=(1, 1), stride=(1, 1), bias=False)
          (3): BatchNorm2d(160, eps=1e-05, momentum=0.1, affine=True, track_running_stats=True)
        )
      )
      (17): InvertedResidual(
        (conv): Sequential(
          (0): Conv2dNormActivation(
            (0): Conv2d(160, 960, kernel_size=(1, 1), stride=(1, 1), bias=False)
            (1): BatchNorm2d(960, eps=1e-05, momentum=0.1, affine=True, track_running_stats=True)
            (2): ReLU6(inplace=True)
          )
          (1): Conv2dNormActivation(
            (0): Conv2d(960, 960, kernel_size=(3, 3), stride=(1, 1), padding=(1, 1), groups=960, bias=False)
            (1): BatchNorm2d(960, eps=1e-05, momentum=0.1, affine=True, track_running_stats=True)
            (2): ReLU6(inplace=True)
          )
          (2): Conv2d(960, 320, kernel_size=(1, 1), stride=(1, 1), bias=False)
          (3): BatchNorm2d(320, eps=1e-05, momentum=0.1, affine=True, track_running_stats=True)
        )
      )
      (18): Conv2dNormActivation(
        (0): Conv2d(320, 1280, kernel_size=(1, 1), stride=(1, 1), bias=False)
        (1): BatchNorm2d(1280, eps=1e-05, momentum=0.1, affine=True, track_running_stats=True)
        (2): ReLU6(inplace=True)
      )
    )
    (classifier): Sequential(
      (0): Dropout(p=0.2, inplace=False)
      (1): Linear(in_features=1280, out_features=28, bias=True)
    )
  )
)
2023-03-14 08:41:04,029 Train Epoch : 0	 Training Loss : 3.347547761636888
2023-03-14 08:41:05,314 Class Accuracy
2023-03-14 08:41:05,315 array([0.        , 0.14285714, 0.        , 0.        , 0.        ,
       0.        , 0.        , 0.42857143, 0.3       , 0.        ,
       0.        , 0.        , 0.        , 0.33333333, 0.13333333,
       0.        , 0.        , 0.0625    , 0.        , 0.        ,
…
