2023-03-14 04:29:02,736 Namespace(batch_size=12, class_weights=1, dataDir='data/Mango', epochs=200, logDir='logs_temp', max_lr=3e-05, modelDir='weights_temp', model_type='efficient_att', n_class=28, split_ratio=0.9, weight_decay=0.0001)
2023-03-14 04:29:02,880 BaseFeatureExtractor(
  (backbone): EfficientFormer(
    (patch_embed): Sequential(
      (0): Conv2d(3, 24, kernel_size=(3, 3), stride=(2, 2), padding=(1, 1))
      (1): BatchNorm2d(24, eps=1e-05, momentum=0.1, affine=True, track_running_stats=True)
      (2): ReLU()
      (3): Conv2d(24, 48, kernel_size=(3, 3), stride=(2, 2), padding=(1, 1))
      (4): BatchNorm2d(48, eps=1e-05, momentum=0.1, affine=True, track_running_stats=True)
      (5): ReLU()
    )
    (network): ModuleList(
      (0): Sequential(
        (0): Meta4D(
          (token_mixer): Pooling(
            (pool): AvgPool2d(kernel_size=3, stride=1, padding=1)
          )
          (mlp): Mlp(
            (fc1): Conv2d(48, 192, kernel_size=(1, 1), stride=(1, 1))
            (act): GELU(approximate=none)
            (fc2): Conv2d(192, 48, kernel_size=(1, 1), stride=(1, 1))
            (drop): Dropout(p=0.0, inplace=False)
            (norm1): BatchNorm2d(192, eps=1e-05, momentum=0.1, affine=True, track_running_stats=True)
            (norm2): BatchNorm2d(48, eps=1e-05, momentum=0.1, affine=True, track_running_stats=True)
          )
          (drop_path): Identity()
        )
        (1): Meta4D(
          (token_mixer): Pooling(
            (pool): AvgPool2d(kernel_size=3, stride=1, padding=1)
          )
          (mlp): Mlp(
            (fc1): Conv2d(48, 192, kernel_size=(1, 1), stride=(1, 1))
            (act): GELU(approximate=none)
            (fc2): Conv2d(192, 48, kernel_size=(1, 1), stride=(1, 1))
            (drop): Dropout(p=0.0, inplace=False)
            (norm1): BatchNorm2d(192, eps=1e-05, momentum=0.1, affine=True, track_running_stats=True)
            (norm2): BatchNorm2d(48, eps=1e-05, momentum=0.1, affine=True, track_running_stats=True)
          )
          (drop_path): Identity()
        )
        (2): Meta4D(
          (token_mixer): Pooling(
            (pool): AvgPool2d(kernel_size=3, stride=1, padding=1)
          )
          (mlp): Mlp(
            (fc1): Conv2d(48, 192, kernel_size=(1, 1), stride=(1, 1))
            (act): GELU(approximate=none)
            (fc2): Conv2d(192, 48, kernel_size=(1, 1), stride=(1, 1))
            (drop): Dropout(p=0.0, inplace=False)
            (norm1): BatchNorm2d(192, eps=1e-05, momentum=0.1, affine=True, track_running_stats=True)
            (norm2): BatchNorm2d(48, eps=1e-05, momentum=0.1, affine=True, track_running_stats=True)
          )
          (drop_path): Identity()
        )
      )
      (1): Embedding(
        (proj): Conv2d(48, 96, kernel_size=(3, 3), stride=(2, 2), padding=(1, 1))
        (norm): BatchNorm2d(96, eps=1e-05, momentum=0.1, affine=True, track_running_stats=True)
      )
      (2): Sequential(
        (0): Meta4D(
          (token_mixer): Pooling(
            (pool): AvgPool2d(kernel_size=3, stride=1, padding=1)
          )
          (mlp): Mlp(
            (fc1): Conv2d(96, 384, kernel_size=(1, 1), stride=(1, 1))
            (act): GELU(approximate=none)
            (fc2): Conv2d(384, 96, kernel_size=(1, 1), stride=(1, 1))
            (drop): Dropout(p=0.0, inplace=False)
            (norm1): BatchNorm2d(384, eps=1e-05, momentum=0.1, affine=True, track_running_stats=True)
            (norm2): BatchNorm2d(96, eps=1e-05, momentum=0.1, affine=True, track_running_stats=True)
          )
          (drop_path): Identity()
        )
        (1): Meta4D(
          (token_mixer): Pooling(
            (pool): AvgPool2d(kernel_size=3, stride=1, padding=1)
          )
          (mlp): Mlp(
            (fc1): Conv2d(96, 384, kernel_size=(1, 1), stride=(1, 1))
            (act): GELU(approximate=none)
            (fc2): Conv2d(384, 96, kernel_size=(1, 1), stride=(1, 1))
            (drop): Dropout(p=0.0, inplace=False)
            (norm1): BatchNorm2d(384, eps=1e-05, momentum=0.1, affine=True, track_running_stats=True)
            (norm2): BatchNorm2d(96, eps=1e-05, momentum=0.1, affine=True, track_running_stats=True)
          )
          (drop_path): Identity()
        )
      )
      (3): Embedding(
        (proj): Conv2d(96, 224, kernel_size=(3, 3), stride=(2, 2), padding=(1, 1))
        (norm): BatchNorm2d(224, eps=1e-05, momentum=0.1, affine=True, track_running_stats=True)
      )
      (4): Sequential(
        (0): Meta4D(
          (token_mixer): Pooling(
            (pool): AvgPool2d(kernel_size=3, stride=1, padding=1)
          )
          (mlp): Mlp(
            (fc1): Conv2d(224, 896, kernel_size=(1, 1), stride=(1, 1))
            (act): GELU(approximate=none)
            (fc2): Conv2d(896, 224, kernel_size=(1, 1), stride=(1, 1))
            (drop): Dropout(p=0.0, inplace=False)
            (norm1): BatchNorm2d(896, eps=1e-05, momentum=0.1, affine=True, track_running_stats=True)
            (norm2): BatchNorm2d(224, eps=1e-05, momentum=0.1, affine=True, track_running_stats=True)
          )
          (drop_path): Identity()
        )
        (1): Meta4D(
          (token_mixer): Pooling(
            (pool): AvgPool2d(kernel_size=3, stride=1, padding=1)
          )
          (mlp): Mlp(
            (fc1): Conv2d(224, 896, kernel_size=(1, 1), stride=(1, 1))
            (act): GELU(approximate=none)
            (fc2): Conv2d(896, 224, kernel_size=(1, 1), stride=(1, 1))
            (drop): Dropout(p=0.0, inplace=False)
            (norm1): BatchNorm2d(896, eps=1e-05, momentum=0.1, affine=True, track_running_stats=True)
            (norm2): BatchNorm2d(224, eps=1e-05, momentum=0.1, affine=True, track_running_stats=True)
          )
          (drop_path): Identity()
        )
        (2): Meta4D(
          (token_mixer): Pooling(
            (pool): AvgPool2d(kernel_size=3, stride=1, padding=1)
          )
          (mlp): Mlp(
            (fc1): Conv2d(224, 896, kernel_size=(1, 1), stride=(1, 1))
            (act): GELU(approximate=none)
            (fc2): Conv2d(896, 224, kernel_size=(1, 1), stride=(1, 1))
            (drop): Dropout(p=0.0, inplace=False)
            (norm1): BatchNorm2d(896, eps=1e-05, momentum=0.1, affine=True, track_running_stats=True)
            (norm2): BatchNorm2d(224, eps=1e-05, momentum=0.1, affine=True, track_running_stats=True)
          )
          (drop_path): Identity()
        )
        (3): Meta4D(
          (token_mixer): Pooling(
            (pool): AvgPool2d(kernel_size=3, stride=1, padding=1)
          )
          (mlp): Mlp(
            (fc1): Conv2d(224, 896, kernel_size=(1, 1), stride=(1, 1))
            (act): GELU(approximate=none)
            (fc2): Conv2d(896, 224, kernel_size=(1, 1), stride=(1, 1))
            (drop): Dropout(p=0.0, inplace=False)
            (norm1): BatchNorm2d(896, eps=1e-05, momentum=0.1, affine=True, track_running_stats=True)
            (norm2): BatchNorm2d(224, eps=1e-05, momentum=0.1, affine=True, track_running_stats=True)
          )
          (drop_path): Identity()
        )
        (4): Meta4D(
          (token_mixer): Pooling(
            (pool): AvgPool2d(kernel_size=3, stride=1, padding=1)
          )
          (mlp): Mlp(
            (fc1): Conv2d(224, 896, kernel_size=(1, 1), stride=(1, 1))
            (act): GELU(approximate=none)
            (fc2): Conv2d(896, 224, kernel_size=(1, 1), stride=(1, 1))
            (drop): Dropout(p=0.0, inplace=False)
            (norm1): BatchNorm2d(896, eps=1e-05, momentum=0.1, affine=True, track_running_stats=True)
            (norm2): BatchNorm2d(224, eps=1e-05, momentum=0.1, affine=True, track_running_stats=True)
          )
          (drop_path): Identity()
        )
        (5): Meta4D(
          (token_mixer): Pooling(
            (pool): AvgPool2d(kernel_size=3, stride=1, padding=1)
          )
          (mlp): Mlp(
            (fc1): Conv2d(224, 896, kernel_size=(1, 1), stride=(1, 1))
            (act): GELU(approximate=none)
            (fc2): Conv2d(896, 224, kernel_size=(1, 1), stride=(1, 1))
            (drop): Dropout(p=0.0, inplace=False)
            (norm1): BatchNorm2d(896, eps=1e-05, momentum=0.1, affine=True, track_running_stats=True)
            (norm2): BatchNorm2d(224, eps=1e-05, momentum=0.1, affine=True, track_running_stats=True)
          )
          (drop_path): Identity()
        )
      )
      (5): Embedding(
        (proj): Conv2d(224, 448, kernel_size=(3, 3), stride=(2, 2), padding=(1, 1))
        (norm): BatchNorm2d(448, eps=1e-05, momentum=0.1, affine=True, track_running_stats=True)
      )
      (6): Sequential(
        (0): Meta4D(
          (token_mixer): Pooling(
            (pool): AvgPool2d(kernel_size=3, stride=1, padding=1)
          )
          (mlp): Mlp(
            (fc1): Conv2d(448, 1792, kernel_size=(1, 1), stride=(1, 1))
            (act): GELU(approximate=none)
            (fc2): Conv2d(1792, 448, kernel_size=(1, 1), stride=(1, 1))
            (drop): Dropout(p=0.0, inplace=False)
            (norm1): BatchNorm2d(1792, eps=1e-05, momentum=0.1, affine=True, track_running_stats=True)
            (norm2): BatchNorm2d(448, eps=1e-05, momentum=0.1, affine=True, track_running_stats=True)
          )
          (drop_path): Identity()
        )
        (1): Meta4D(
          (token_mixer): Pooling(
            (pool): AvgPool2d(kernel_size=3, stride=1, padding=1)
          )
          (mlp): Mlp(
            (fc1): Conv2d(448, 1792, kernel_size=(1, 1), stride=(1, 1))
            (act): GELU(approximate=none)
            (fc2): Conv2d(1792, 448, kernel_size=(1, 1), stride=(1, 1))
            (drop): Dropout(p=0.0, inplace=False)
            (norm1): BatchNorm2d(1792, eps=1e-05, momentum=0.1, affine=True, track_running_stats=True)
            (norm2): BatchNorm2d(448, eps=1e-05, momentum=0.1, affine=True, track_running_stats=True)
          )
          (drop_path): Identity()
        )
        (2): Meta4D(
          (token_mixer): Pooling(
            (pool): AvgPool2d(kernel_size=3, stride=1, padding=1)
          )
          (mlp): Mlp(
            (fc1): Conv2d(448, 1792, kernel_size=(1, 1), stride=(1, 1))
            (act): GELU(approximate=none)
            (fc2): Conv2d(1792, 448, kernel_size=(1, 1), stride=(1, 1))
            (drop): Dropout(p=0.0, inplace=False)
            (norm1): BatchNorm2d(1792, eps=1e-05, momentum=0.1, affine=True, track_running_stats=True)
            (norm2): BatchNorm2d(448, eps=1e-05, momentum=0.1, affine=True, track_running_stats=True)
          )
          (drop_path): Identity()
        )
        (3): Flat()
        (4): Meta3D(
          (norm1): LayerNorm((448,), eps=1e-05, elementwise_affine=True)
          (token_mixer): Attention(
            (qkv): Linear(in_features=448, out_features=1536, bias=True)
            (proj): Linear(in_features=1024, out_features=448, bias=True)
          )
          (norm2): LayerNorm((448,), eps=1e-05, elementwise_affine=True)
          (mlp): LinearMlp(
            (fc1): Linear(in_features=448, out_features=1792, bias=True)
            (act): GELU(approximate=none)
            (drop1): Dropout(p=0.0, inplace=False)
            (fc2): Linear(in_features=1792, out_features=448, bias=True)
            (drop2): Dropout(p=0.0, inplace=False)
          )
          (drop_path): Identity()
        )
      )
    )
    (norm): LayerNorm((448,), eps=1e-05, elementwise_affine=True)
    (head): Linear(in_features=448, out_features=28, bias=True)
  )
)
2023-03-14 04:29:45,877 Namespace(batch_size=16, class_weights=1, dataDir='data/Mango', epochs=200, logDir='logs_temp', max_lr=3e-05, modelDir='weights_temp', model_type='efficient_att', n_class=28, split_ratio=0.9, weight_decay=0.0001)
2023-03-14 04:29:46,029 BaseFeatureExtractor(
  (backbone): EfficientFormer(
    (patch_embed): Sequential(
      (0): Conv2d(3, 24, kernel_size=(3, 3), stride=(2, 2), padding=(1, 1))
      (1): BatchNorm2d(24, eps=1e-05, momentum=0.1, affine=True, track_running_stats=True)
      (2): ReLU()
      (3): Conv2d(24, 48, kernel_size=(3, 3), stride=(2, 2), padding=(1, 1))
      (4): BatchNorm2d(48, eps=1e-05, momentum=0.1, affine=True, track_running_stats=True)
      (5): ReLU()
    )
    (network): ModuleList(
      (0): Sequential(
        (0): Meta4D(
          (token_mixer): Pooling(
            (pool): AvgPool2d(kernel_size=3, stride=1, padding=1)
          )
          (mlp): Mlp(
            (fc1): Conv2d(48, 192, kernel_size=(1, 1), stride=(1, 1))
            (act): GELU(approximate=none)
            (fc2): Conv2d(192, 48, kernel_size=(1, 1), stride=(1, 1))
            (drop): Dropout(p=0.0, inplace=False)
            (norm1): BatchNorm2d(192, eps=1e-05, momentum=0.1, affine=True, track_running_stats=True)
            (norm2): BatchNorm2d(48, eps=1e-05, momentum=0.1, affine=True, track_running_stats=True)
          )
          (drop_path): Identity()
        )
        (1): Meta4D(
          (token_mixer): Pooling(
            (pool): AvgPool2d(kernel_size=3, stride=1, padding=1)
          )
          (mlp): Mlp(
            (fc1): Conv2d(48, 192, kernel_size=(1, 1), stride=(1, 1))
            (act): GELU(approximate=none)
            (fc2): Conv2d(192, 48, kernel_size=(1, 1), stride=(1, 1))
            (drop): Dropout(p=0.0, inplace=False)
            (norm1): BatchNorm2d(192, eps=1e-05, momentum=0.1, affine=True, track_running_stats=True)
            (norm2): BatchNorm2d(48, eps=1e-05, momentum=0.1, affine=True, track_running_stats=True)
          )
          (drop_path): Identity()
        )
        (2): Meta4D(
          (token_mixer): Pooling(
            (pool): AvgPool2d(kernel_size=3, stride=1, padding=1)
          )
          (mlp): Mlp(
            (fc1): Conv2d(48, 192, kernel_size=(1, 1), stride=(1, 1))
            (act): GELU(approximate=none)
            (fc2): Conv2d(192, 48, kernel_size=(1, 1), stride=(1, 1))
            (drop): Dropout(p=0.0, inplace=False)
            (norm1): BatchNorm2d(192, eps=1e-05, momentum=0.1, affine=True, track_running_stats=True)
            (norm2): BatchNorm2d(48, eps=1e-05, momentum=0.1, affine=True, track_running_stats=True)
          )
          (drop_path): Identity()
        )
      )
      (1): Embedding(
        (proj): Conv2d(48, 96, kernel_size=(3, 3), stride=(2, 2), padding=(1, 1))
        (norm): BatchNorm2d(96, eps=1e-05, momentum=0.1, affine=True, track_running_stats=True)
      )
      (2): Sequential(
        (0): Meta4D(
          (token_mixer): Pooling(
            (pool): AvgPool2d(kernel_size=3, stride=1, padding=1)
          )
          (mlp): Mlp(
            (fc1): Conv2d(96, 384, kernel_size=(1, 1), stride=(1, 1))
            (act): GELU(approximate=none)
            (fc2): Conv2d(384, 96, kernel_size=(1, 1), stride=(1, 1))
            (drop): Dropout(p=0.0, inplace=False)
            (norm1): BatchNorm2d(384, eps=1e-05, momentum=0.1, affine=True, track_running_stats=True)
            (norm2): BatchNorm2d(96, eps=1e-05, momentum=0.1, affine=True, track_running_stats=True)
          )
          (drop_path): Identity()
        )
        (1): Meta4D(
          (token_mixer): Pooling(
            (pool): AvgPool2d(kernel_size=3, stride=1, padding=1)
          )
          (mlp): Mlp(
            (fc1): Conv2d(96, 384, kernel_size=(1, 1), stride=(1, 1))
            (act): GELU(approximate=none)
            (fc2): Conv2d(384, 96, kernel_size=(1, 1), stride=(1, 1))
            (drop): Dropout(p=0.0, inplace=False)
            (norm1): BatchNorm2d(384, eps=1e-05, momentum=0.1, affine=True, track_running_stats=True)
            (norm2): BatchNorm2d(96, eps=1e-05, momentum=0.1, affine=True, track_running_stats=True)
          )
          (drop_path): Identity()
        )
      )
      (3): Embedding(
        (proj): Conv2d(96, 224, kernel_size=(3, 3), stride=(2, 2), padding=(1, 1))
        (norm): BatchNorm2d(224, eps=1e-05, momentum=0.1, affine=True, track_running_stats=True)
      )
      (4): Sequential(
        (0): Meta4D(
          (token_mixer): Pooling(
            (pool): AvgPool2d(kernel_size=3, stride=1, padding=1)
          )
          (mlp): Mlp(
            (fc1): Conv2d(224, 896, kernel_size=(1, 1), stride=(1, 1))
            (act): GELU(approximate=none)
            (fc2): Conv2d(896, 224, kernel_size=(1, 1), stride=(1, 1))
            (drop): Dropout(p=0.0, inplace=False)
            (norm1): BatchNorm2d(896, eps=1e-05, momentum=0.1, affine=True, track_running_stats=True)
            (norm2): BatchNorm2d(224, eps=1e-05, momentum=0.1, affine=True, track_running_stats=True)
          )
          (drop_path): Identity()
        )
        (1): Meta4D(
          (token_mixer): Pooling(
            (pool): AvgPool2d(kernel_size=3, stride=1, padding=1)
          )
          (mlp): Mlp(
            (fc1): Conv2d(224, 896, kernel_size=(1, 1), stride=(1, 1))
            (act): GELU(approximate=none)
            (fc2): Conv2d(896, 224, kernel_size=(1, 1), stride=(1, 1))
            (drop): Dropout(p=0.0, inplace=False)
            (norm1): BatchNorm2d(896, eps=1e-05, momentum=0.1, affine=True, track_running_stats=True)
            (norm2): BatchNorm2d(224, eps=1e-05, momentum=0.1, affine=True, track_running_stats=True)
          )
          (drop_path): Identity()
        )
        (2): Meta4D(
          (token_mixer): Pooling(
            (pool): AvgPool2d(kernel_size=3, stride=1, padding=1)
          )
          (mlp): Mlp(
            (fc1): Conv2d(224, 896, kernel_size=(1, 1), stride=(1, 1))
            (act): GELU(approximate=none)
            (fc2): Conv2d(896, 224, kernel_size=(1, 1), stride=(1, 1))
            (drop): Dropout(p=0.0, inplace=False)
            (norm1): BatchNorm2d(896, eps=1e-05, momentum=0.1, affine=True, track_running_stats=True)
            (norm2): BatchNorm2d(224, eps=1e-05, momentum=0.1, affine=True, track_running_stats=True)
          )
          (drop_path): Identity()
        )
        (3): Meta4D(
          (token_mixer): Pooling(
            (pool): AvgPool2d(kernel_size=3, stride=1, padding=1)
          )
          (mlp): Mlp(
            (fc1): Conv2d(224, 896, kernel_size=(1, 1), stride=(1, 1))
            (act): GELU(approximate=none)
            (fc2): Conv2d(896, 224, kernel_size=(1, 1), stride=(1, 1))
            (drop): Dropout(p=0.0, inplace=False)
            (norm1): BatchNorm2d(896, eps=1e-05, momentum=0.1, affine=True, track_running_stats=True)
            (norm2): BatchNorm2d(224, eps=1e-05, momentum=0.1, affine=True, track_running_stats=True)
          )
          (drop_path): Identity()
        )
        (4): Meta4D(
          (token_mixer): Pooling(
            (pool): AvgPool2d(kernel_size=3, stride=1, padding=1)
          )
          (mlp): Mlp(
            (fc1): Conv2d(224, 896, kernel_size=(1, 1), stride=(1, 1))
            (act): GELU(approximate=none)
            (fc2): Conv2d(896, 224, kernel_size=(1, 1), stride=(1, 1))
            (drop): Dropout(p=0.0, inplace=False)
            (norm1): BatchNorm2d(896, eps=1e-05, momentum=0.1, affine=True, track_running_stats=True)
            (norm2): BatchNorm2d(224, eps=1e-05, momentum=0.1, affine=True, track_running_stats=True)
          )
          (drop_path): Identity()
        )
        (5): Meta4D(
          (token_mixer): Pooling(
            (pool): AvgPool2d(kernel_size=3, stride=1, padding=1)
          )
          (mlp): Mlp(
            (fc1): Conv2d(224, 896, kernel_size=(1, 1), stride=(1, 1))
            (act): GELU(approximate=none)
            (fc2): Conv2d(896, 224, kernel_size=(1, 1), stride=(1, 1))
            (drop): Dropout(p=0.0, inplace=False)
            (norm1): BatchNorm2d(896, eps=1e-05, momentum=0.1, affine=True, track_running_stats=True)
            (norm2): BatchNorm2d(224, eps=1e-05, momentum=0.1, affine=True, track_running_stats=True)
          )
          (drop_path): Identity()
        )
      )
      (5): Embedding(
        (proj): Conv2d(224, 448, kernel_size=(3, 3), stride=(2, 2), padding=(1, 1))
        (norm): BatchNorm2d(448, eps=1e-05, momentum=0.1, affine=True, track_running_stats=True)
      )
      (6): Sequential(
        (0): Meta4D(
          (token_mixer): Pooling(
            (pool): AvgPool2d(kernel_size=3, stride=1, padding=1)
          )
          (mlp): Mlp(
            (fc1): Conv2d(448, 1792, kernel_size=(1, 1), stride=(1, 1))
            (act): GELU(approximate=none)
            (fc2): Conv2d(1792, 448, kernel_size=(1, 1), stride=(1, 1))
            (drop): Dropout(p=0.0, inplace=False)
            (norm1): BatchNorm2d(1792, eps=1e-05, momentum=0.1, affine=True, track_running_stats=True)
            (norm2): BatchNorm2d(448, eps=1e-05, momentum=0.1, affine=True, track_running_stats=True)
          )
          (drop_path): Identity()
        )
        (1): Meta4D(
          (token_mixer): Pooling(
            (pool): AvgPool2d(kernel_size=3, stride=1, padding=1)
          )
          (mlp): Mlp(
            (fc1): Conv2d(448, 1792, kernel_size=(1, 1), stride=(1, 1))
            (act): GELU(approximate=none)
            (fc2): Conv2d(1792, 448, kernel_size=(1, 1), stride=(1, 1))
            (drop): Dropout(p=0.0, inplace=False)
            (norm1): BatchNorm2d(1792, eps=1e-05, momentum=0.1, affine=True, track_running_stats=True)
            (norm2): BatchNorm2d(448, eps=1e-05, momentum=0.1, affine=True, track_running_stats=True)
          )
          (drop_path): Identity()
        )
        (2): Meta4D(
          (token_mixer): Pooling(
            (pool): AvgPool2d(kernel_size=3, stride=1, padding=1)
          )
          (mlp): Mlp(
            (fc1): Conv2d(448, 1792, kernel_size=(1, 1), stride=(1, 1))
            (act): GELU(approximate=none)
            (fc2): Conv2d(1792, 448, kernel_size=(1, 1), stride=(1, 1))
            (drop): Dropout(p=0.0, inplace=False)
            (norm1): BatchNorm2d(1792, eps=1e-05, momentum=0.1, affine=True, track_running_stats=True)
            (norm2): BatchNorm2d(448, eps=1e-05, momentum=0.1, affine=True, track_running_stats=True)
          )
          (drop_path): Identity()
        )
        (3): Flat()
        (4): Meta3D(
          (norm1): LayerNorm((448,), eps=1e-05, elementwise_affine=True)
          (token_mixer): Attention(
            (qkv): Linear(in_features=448, out_features=1536, bias=True)
            (proj): Linear(in_features=1024, out_features=448, bias=True)
          )
          (norm2): LayerNorm((448,), eps=1e-05, elementwise_affine=True)
          (mlp): LinearMlp(
            (fc1): Linear(in_features=448, out_features=1792, bias=True)
            (act): GELU(approximate=none)
            (drop1): Dropout(p=0.0, inplace=False)
            (fc2): Linear(in_features=1792, out_features=448, bias=True)
            (drop2): Dropout(p=0.0, inplace=False)
          )
          (drop_path): Identity()
        )
      )
    )
    (norm): LayerNorm((448,), eps=1e-05, elementwise_affine=True)
    (head): Linear(in_features=448, out_features=28, bias=True)
  )
)
2023-03-14 04:30:22,924 Train Epoch : 0	 Training Loss : 3.3299848570077906
2023-03-14 04:30:24,667 Class Accuracy
2023-03-14 04:30:24,667 array([0.05882353, 0.42857143, 0.        , 0.        , 0.        ,
       0.        , 0.        , 0.        , 0.        , 0.        ,
       0.        , 0.06666667, 0.05263158, 0.        , 0.53333333,
       0.        , 0.        , 0.        , 0.14285714, 0.2       ,
…
